models/gnn_model.pth (torch, 94432 bytes, 4 tensors)

conv1.bias f4 [16]
000000 14 3f d9 3d 32 61 c5 3d a3 a3 01 3e ca 9c 11 3e
       0.10607734 0.09637679 0.12660079 0.14219967
000010 5d ed 99 3d c5 54 d7 3d fa 3d 1b 3e 8e ad fe 3d
       0.075159766 0.105142154 0.15160361 0.12435447
000020 90 ca 84 3d 42 0c ef 3d 1a 9d cc 3d a7 8f 2f 3e
       0.06483948 0.1167226 0.09990902 0.17144643
000030 18 83 c9 3d 3c 44 b6 3d ae 3f a9 3d 4d 16 fc 3d
       0.09839457 0.088997334 0.08264099 0.12308941

conv1.lin.weight f4 [16, 1433]
000000 17 1b 98 bb 5f c6 96 be 98 56 70 ba 2c d4 d6 3e
       -0.0046419012 -0.2944822 -0.0009168177 0.4195875
000010 ed c6 92 bf 70 c0 94 3d 4d ca 58 3e 2c 82 cf bd
       -1.1466957 0.07263267 0.21170922 -0.1013225
000020 b7 3d e1 bd 78 77 95 bc aa 25 81 bb b6 ef a7 bd
       -0.10998099 -0.018245444 -0.0039412575 -0.08200018
000030 52 32 9e be a2 08 66 bc be 99 6d be 57 84 9c be
       -0.30897766 -0.014040144 -0.23203179 -0.30569717
000040 e3 81 20 be a5 a9 25 3e 0e d7 e3 3d 66 b6 f5 be
       -0.15674548 0.16177996 0.11125003 -0.4799072
000050 d9 42 15 b5 86 03 23 3e d3 22 ab 3c 92 8f 8f 3d
       -5.56041e-07 0.15919313 0.020890629 0.07009806
000060 d4 50 ce 3c ab 9e eb 3e 80 c2 0e be 1b b0 ab be
       0.025185026 0.46019492 -0.13941383 -0.33532795
000070 49 a1 be be f1 96 87 3d bc c9 2e 3e f7 2a 45 bd
       -0.37232426 0.06620587 0.17069143 -0.048136678
000080 ee 3c c5 3a da 90 07 3c f9 d7 c5 3d da 62 ab be
       0.0015048066 0.008274281 0.09660334 -0.33473855
000090 3d fa 36 be 5c 08 4e bb ae 23 50 be 14 6a 1a be
       -0.17868896 -0.0031438088 -0.2032611 -0.15079528
0000a0 a9 79 a5 be 1d a8 bb be 90 58 ca 3b 70 62 9f bd
       -0.32319382 -0.36651698 0.0061751083 -0.07782447
0000b0 f9 2b 2f be 3f 07 7a 3e 1e 86 2c 3d 72 e0 e7 3d
       -0.17106618 0.24416827 0.04212009 0.113221064
0000c0 ad 11 c3 bd 05 04 94 3c 3f 4a 47 3e 1c 3d 38 bf
       -0.09524856 0.018068323 0.19461916 -0.71968246
0000d0 13 18 12 bd 7f cd 4b 3c 40 6f 68 3e 9f 58 5e bd
       -0.03566749 0.012439131 0.22698689 -0.054283734
0000e0 a5 4e c6 3e a4 85 1f bc 19 7c bb be 5c da c6 3d
       0.38731876 -0.009736452 -0.36618116 0.097096175
0000f0 00 d6 67 b4 fd 63 99 be 61 e9 2d 3e 6d 23 08 3f
       -2.1591404e-07 -0.29959098 0.16983558 0.53179055
000100 3d b8 ae bd b2 43 ff bc 90 ea 93 bc 42 fb 64 3e
       -0.085312344 -0.03116021 -0.018056184 0.22361472
000110 08 0a b5 bb 3e 09 39 3d ff 15 1b 3e 73 29 84 3d
       -0.0055248775 0.04517483 0.1514511 0.06453218
000120 81 d7 82 3c f0 c7 5b 3d c8 cc a5 3d a8 82 bd 3d
       0.0159719 0.053657472 0.080956995 0.09253436
000130 a2 4c c1 3e 6f 74 07 bf c7 cd 86 be 51 13 92 3c
       0.3775378 -0.5291204 -0.2632887 0.017831476
000140 28 ca cd bd 71 dd d2 3e 07 d2 75 be 3e 7f ad 3d
       -0.10048324 0.4118457 -0.240059 0.08471535
000150 18 28 2e bd e6 93 2f 3e 89 80 14 3e 95 b3 fb 3c
       -0.042518705 0.17146263 0.14502157 0.03072528
000160 d2 72 e3 bd 98 27 16 be ae fd 52 3d a7 45 90 bd
       -0.111058846 -0.14663541 0.05151146 -0.07044535
000170 35 12 eb bd a9 fb 18 bf f0 2c a7 bc 7a 08 f2 bd
       -0.11478082 -0.59759 -0.02040717 -0.11818023
000180 3e a5 8b 3d d8 38 e7 bd b3 97 aa 3e a5 6e a4 3e
       0.06818627 -0.11290139 0.33318862 0.32115665
000190 4c 4a 8b 3d d3 ec 2f 3d 7a d7 59 be 4a f1 d6 3d
       0.068012804 0.042950463 -0.21273604 0.10495241
0001a0 03 6b 1a be e1 80 4a 3d 6f 5d 20 3e 9c 8b 57 bc
       -0.15079884 0.049439315 0.15660642 -0.013155844
0001b0 6f dc 08 3f 1d 0f 37 3d 17 5c 92 3c c4 6f 85 bd
       0.53461355 0.044692148 0.017866177 -0.06515458
0001c0 7f 82 e8 3d 38 3a 0c 3c 7d 6c 15 3e 48 6a dc bb
       0.11353015 0.008558802 0.14592166 -0.006726537
0001d0 36 63 05 3e 6d a8 85 3d 34 93 24 3e df 08 05 bd
       0.13026127 0.06526265 0.16071779 -0.032479163
0001e0 da 58 e6 bb 60 f2 d6 3d 0e ca a4 3e 6b 2c 39 3d
       -0.007029635 0.10495448 0.32185405 0.045208376
0001f0 0e 97 a6 bd ff 95 1c be c5 ce a1 3e ee 88 cb bd
       -0.0813428 -0.15291594 0.31603065 -0.09938227
000200 b2 05 57 be 8b 61 56 bd 30 f4 1d 3e d0 51 3e be
       -0.20998266 -0.052339118 0.15425181 -0.18585896
000210 16 74 34 3f 70 45 99 b9 e3 4b 6e bd 5f 59 c1 be
       0.70489633 -0.0002923417 -0.05817784 -0.37763497
000220 5a 88 c8 bd 0f a7 98 3c 2d 37 3f bd e3 9f 65 bc
       -0.09791632 0.018634347 -0.04668348 -0.014015171
000230 11 a2 33 3f ab 90 4f bd db 3f 09 3e c8 cf e2 3d
       0.7016917 -0.050675076 0.13403265 0.110747874
000240 eb df b4 bc 7e 44 6d 35 ed 1e 96 3e 1a 37 4a 3e
       -0.022079429 8.838905e-07 0.2932047 0.19747582
000250 65 ae eb 3d a4 5b 37 be e3 ce 9b 3d 40 d1 0b bf
       0.115078725 -0.17906052 0.0760782 -0.54616165
000260 4a aa 8d 3b 10 5e 9a be 27 ee 0a be f0 8d af bd
       0.0043232786 -0.3014989 -0.1356741 -0.08571994
000270 bf a5 27 3e 43 5b 91 bd 7c 21 9c 3d 58 be 8d 3d
       0.16371821 -0.07097485 0.07623574 0.06921071
000280 b4 f3 6b 3d 34 c9 e6 3d a8 7e 81 be b8 05 a0 3d
       0.05760546 0.11268845 -0.25291944 0.07813591
000290 97 75 42 3d 90 02 01 3d 32 80 4c be 29 7e 09 3e
       0.047475424 0.031496584 -0.19970778 0.13427033
0002a0 ea 0b 83 bf 2e 16 f4 bb 2e 34 bd bd 5f 2c c7 bb
       -1.0238011 -0.007448933 -0.09238468 -0.0060782875
0002b0 f7 ba e0 be 12 3f 18 3e 1e f9 c6 3d 94 f4 28 3d
       -0.43892643 0.1486781 0.09715484 0.041248873
0002c0 62 55 93 3d 35 a2 27 be 7c fd 67 3d 32 c1 94 3e
       0.0719402 -0.16370471 0.056638226 0.29053646
0002d0 e6 70 9d 3b 50 bc d2 bc e1 9e 06 bc fc fb c6 bb
       0.0048047183 -0.02572456 -0.008216591 -0.0060725193
0002e0 56 4b 8f bc 11 d1 00 3b d4 5d 96 3d 99 7f f4 be
       -0.017491978 0.0019655863 0.07342115 -0.477536
0002f0 c4 5d 8b 3e 27 10 4b bd 64 2b f0 3d 37 dc 10 3d
       0.27219975 -0.04957595 0.11727026 0.035366263
000300 aa 3f c8 be 76 85 1c 3c 7f ad b4 3e cf e8 89 ba
       -0.39111072 0.009553304 0.35288617 -0.0010521653
000310 d1 e3 b3 be 3c 79 1c be b5 c0 4e bd f9 d6 22 bd
       -0.35134748 -0.15280622 -0.05047675 -0.039755795
000320 01 15 21 3d 24 c8 1f 3c bd 6b 74 3d db 13 68 3e
       0.03932667 0.009752307 0.05967306 0.22663824
000330 18 45 fc bc b8 ea b5 3d 75 d9 d6 bc bc 32 74 3d
       -0.030794665 0.0888266 -0.026226738 0.059618697
000340 69 b2 a0 bd d1 d0 25 3c 84 e5 98 bd e4 03 f1 3d
       -0.07846529 0.0101205865 -0.07465652 0.1176832
000350 a1 01 b6 be 55 36 1b 3e d9 cc 66 3e 21 c0 43 3d
       -0.35548118 0.15157445 0.2253908 0.04779065
000360 da 2e be 3b 6c bd 17 3e 4f 53 ba 3d 9b 6f 15 3e
       0.005803925 0.14818352 0.09097921 0.14593355
000370 b6 66 0b 3e 48 52 4a 38 60 33 09 bd 61 e6 41 3c
       0.136134 4.8237183e-05 -0.03349626 0.011834712
000380 a3 bb 5c bd fb 8c 85 3e 31 c1 0a 3b 79 ef 14 3d
       -0.05388988 0.26084122 0.002117228 0.03636119
000390 4f 9a 32 3e e6 d1 32 bd 7a 2a bb bd 9c 49 fa bc
       0.17441677 -0.043657206 -0.09138961 -0.030552678
0003a0 f4 f6 9e be 1a 4b 42 3e 78 67 cf 3d 50 58 dc bc
       -0.31047785 0.18973961 0.10127157 -0.02689758
0003b0 b7 9f a0 bd b5 eb 9f 3e 81 72 0b 3e 1c 61 72 3a
       -0.07842963 0.31234518 0.13617899 0.0009246038
0003c0 ae c7 91 3d 05 2b d2 3c 61 74 75 3d b2 b8 af 3d
       0.07118164 0.025655279 0.05992544 0.0858015
0003d0 43 df 3c be 32 15 26 3e d2 8b 9f bc 76 8e 4c 3e
       -0.18444543 0.16219023 -0.019475851 0.1997622
0003e0 5c fa b9 3d e1 80 82 bd 20 98 9e be 51 42 0b bd
       0.090809554 -0.06372238 -0.30975437 -0.03399879
0003f0 5f 60 d2 3d ec 5f 37 3d b8 a6 1f be ac 8d 4a 3e
       0.102722876 0.044769213 -0.15590942 0.19780606

conv2.bias f4 [7]
000000 e7 15 3a bf 7e 6a 90 bf 08 2b 30 bd 27 b3 22 bf
       -0.7268967 -1.1282499 -0.043009788 -0.63554615
000010 ac d8 3d 3e af 79 96 3f 5a 52 e8 be
       0.18539685 1.1755885 -0.4537533

conv2.lin.weight f4 [7, 16]
000000 46 0e ef 3f e3 d2 e9 3f f8 c1 d1 3f 00 43 cd bf
       1.8676231 1.8267483 1.638732 -1.6036072
000010 3d 12 e3 3f 56 70 a5 3f 12 b1 97 bf 89 e9 fc bf
       1.7739941 1.2924907 -1.1850913 -1.9758769
000020 79 b3 d2 3f 07 68 85 3f 01 00 c5 3f 12 bb a5 3f
       1.6461021 1.0422372 1.5390626 1.2947714
000030 34 6a f1 bf a7 76 f2 bf 05 71 f9 bf 05 94 8a bf
       -1.8860536 -1.894246 -1.9487616 -1.0826422
000040 6c d4 e4 bf ad e4 fe bf 8d ae ee bf 92 2d e6 bf
       -1.7877326 -1.9913536 -1.8647019 -1.7982657
000050 a0 86 94 3f 97 99 f8 3f 42 eb df bf b4 1f ec 3f
       1.1603584 1.9421872 -1.749367 1.8447175
000060 45 65 f6 3f 01 8d b5 3f d2 b9 e5 3f c0 85 f2 3f
       1.9249655 1.4183656 1.7947333 1.8947067
000070 28 99 f0 3f d2 1f bc bf 3a d7 cb 3f c9 bb d8 bf
       1.879674 -1.4697211 1.5925057 -1.6932307
000080 06 3e e1 3f b2 e5 dc bf 6e 02 e0 bf 0b 7c df bf
       1.7597053 -1.7257597 -1.7500741 -1.745973
000090 cb 79 c6 bd 7d 8e c4 3f 50 4c ca bf f8 f8 d6 3f
       -0.09691199 1.5355984 -1.5804539 1.6794729
0000a0 5a 2a e7 3f 1c f9 e7 bf 87 62 f2 bf 33 4f b9 bf
       1.80598 -1.8122897 -1.8936318 -1.4477295
0000b0 b9 0a eb bf 61 8d f4 3f b2 b5 d3 3f 8f c5 ff 3f
       -1.8362647 1.9105645 1.6539824 1.9982165
0000c0 a0 73 45 3f 89 dd e1 bf 3c c2 c3 bf 33 e8 d4 3f
       0.77129555 -1.7645732 -1.5293651 1.6633362
0000d0 2e e4 fd bf 12 b0 02 40 d4 c2 d7 3f bf 8c 05 c0
       -1.983526 2.0419965 1.6856332 -2.0867155
0000e0 14 6e f5 bf 8b 00 dd 3f 60 29 e6 bf a9 46 92 3f
       -1.9174218 1.7265791 -1.7981377 1.1427814
0000f0 a8 d2 ce 3f 5b 7d ef 3f 96 1a d0 bf 7c 3f eb 3f
       1.6158037 1.871013 -1.6258113 1.8378749
000100 23 e0 01 c0 d9 96 f9 bf fa 5e c8 3f f8 63 f3 3f
       -2.0293052 -1.949916 1.5653985 1.9014883
000110 d0 96 eb bf 7f dc d4 bf 1a 6b c5 3f f2 26 aa 3f
       -1.8405399 -1.662979 1.542331 1.3293135
000120 dd 0d e9 bf 89 69 d1 bf 2c 9f ca 3f 35 1a f1 3f
       -1.8207356 -1.6360332 1.5829825 1.8836123
000130 6e 09 e6 bf 21 d6 b2 bf 11 db b9 bf 49 9f 99 bd
       -1.7971628 -1.3971597 -1.4519979 -0.07501084
000140 63 03 00 c0 f0 b5 b8 3f 6d ad d3 bf 05 cc ea bf
       -2.0002067 1.4430523 -1.65373 -1.8343512
000150 60 6e bb 3f 10 3e fb bf 97 0b eb bf 28 d7 fd bf
       1.4643059 -1.9628315 -1.8362912 -1.9831285
000160 25 28 04 c0 66 69 d0 3f 1b f4 fa bf 9d e7 02 c0
       -2.0649502 1.6282165 -1.9605745 -2.0453866
000170 97 76 ad 3f bf 8f da bf 07 13 cb 3f 9b 3a cd bf
       1.3551816 -1.7075118 1.5865182 -1.603351
000180 9e 97 f9 3f 69 15 f8 3f ab a6 88 3f 44 11 a8 3f
       1.9499395 1.9381534 1.0675863 1.3130269
000190 f9 2e 91 bf 5a c1 c6 bf 3d 75 bb 3f 5f b0 d5 3f
       -1.134246 -1.5527756 1.4645153 1.6694449
0001a0 44 22 b4 bf a4 a7 ea bf 31 2e eb bf 7f 60 01 c0
       -1.4072957 -1.833241 -1.8373471 -2.0215147
0001b0 57 1e e0 3f 8d b2 fa 3f 8b 7e ca bf c6 c0 e2 bf
       1.7509259 1.9585739 -1.5819868 -1.771508
